# Op-YOLOv8x — extra-large версия с DSMP и P2-головой

nc: 4

scales:
  x: [1.00, 1.25, 512]

backbone:
  - [-1, 1, Conv,  [64, 3, 2]]
  - [-1, 1, Conv,  [128, 3, 2]]
  - [-1, 3, C2f,   [128, True]]
  - [-1, 1, DSMP,  [256, 3, 2]]
  - [-1, 6, C2f,   [256, True]]
  - [-1, 1, DSMP,  [512, 3, 2]]
  - [-1, 6, C2f,   [512, True]]
  - [-1, 1, DSMP,  [1024, 3, 2]]
  - [-1, 3, C2f,   [1024, True]]
  - [-1, 1, SPPF,  [1024, 5]]

head:
  - [-1, 1, nn.Upsample, [None, 2, "nearest"]]
  - [[-1, 6], 1, Concat, [1]]
  - [-1, 3, C2f, [512]]

  - [-1, 1, nn.Upsample, [None, 2, "nearest"]]
  - [[-1, 4], 1, Concat, [1]]
  - [-1, 3, C2f, [256]]

  - [-1, 1, nn.Upsample, [None, 2, "nearest"]]
  - [[-1, 2], 1, Concat, [1]]
  - [-1, 3, C2f, [128]]

  - [-1, 1, DSMP, [128, 3, 2]]
  - [[-1, 15], 1, Concat, [1]]
  - [-1, 3, C2f, [256]]

  - [-1, 1, DSMP, [256, 3, 2]]
  - [[-1, 12], 1, Concat, [1]]
  - [-1, 3, C2f, [512]]

  - [-1, 1, DSMP, [512, 3, 2]]
  - [[-1, 9], 1, Concat, [1]]
  - [-1, 3, C2f, [1024]]

  - [[18, 21, 24, 27], 1, Detect, [nc]]